Assignment2/best_model.pt (torch_old, 707685 bytes, 67 tensors)

conv1.weight f4 [16, 3, 3, 3]
000000 20 bf c4 bd 6f 97 53 bf 52 78 45 bf 8b 0b 81 be
       -0.09606767 -0.82652944 -0.7713672 -0.2520412
000010 cf b5 30 bf e1 f2 4e bf b6 48 3e bd 61 73 10 bf
       -0.6902742 -0.80839354 -0.04645606 -0.56426054
000020 6d 54 a7 be b4 89 15 3e e1 e6 6c 3f 05 ef 2c 3f
       -0.326816 0.14603311 0.92539793 0.67552215
000030 62 51 f3 3e f6 08 f8 3f 0b ce b9 3f c9 b3 0f 3e
       0.47523028 1.9377735 1.4516004 0.14033426
000040 0e d4 65 3f d3 67 3d 3f 87 d0 56 be d7 e7 26 bf
       0.89776695 0.7398655 -0.20977984 -0.6519751
000050 28 e1 ca bd 5e 22 8e be 77 16 f5 be 94 1d 9f bc
       -0.099062264 -0.27760595 -0.47868702 -0.019423284
000060 47 7e 84 3c 3b 02 6c bf 11 3a f9 be e0 4b 08 bf
       0.016173495 -0.92190903 -0.48677114 -0.53240776
000070 7e 65 95 3f d4 f7 e8 3e 8c 02 2c be a3 23 b2 bf
       1.1671598 0.45501578 -0.16797847 -1.3917125
000080 0c 3b eb bd fa f5 90 bd ec 48 36 3f 27 d6 ee 3d
       -0.11485872 -0.07078166 0.7120502 0.1166194
000090 7f 6a 2e be 5e c7 05 3f 02 10 ff 3e e1 70 f6 bd
       -0.17032813 0.52257335 0.498169 -0.12033249
0000a0 36 c5 08 c0 50 fe d1 be 64 32 33 3d 5b 0c 51 3f
       -2.1370368 -0.41014338 0.043749228 0.8165948
0000b0 2d 45 1f 3f 34 78 e1 3e e9 c8 3c 3f 50 fb 86 be
       0.6221493 0.4403702 0.73744065 -0.2636361
0000c0 96 a2 04 3f 56 79 87 bf 57 e1 1e bf eb a5 57 bd
       0.51810586 -1.0583904 -0.6206259 -0.052648466
0000d0 47 80 f0 3e 31 7b ea bb 01 7d d3 be cb d2 c2 3d
       0.46972868 -0.007155799 -0.41306308 0.09512862
0000e0 87 bf 7a be 73 a8 d1 bd 77 50 9e 3f e6 3b 43 3f
       -0.24487124 -0.10237207 1.2368306 0.7626327
0000f0 2b d0 54 bd 6f 4e 68 3f 5b 8f 38 3f 30 d7 9d be
       -0.051956337 0.9074468 0.72093743 -0.30828238
000100 68 4c aa be e9 13 75 be 08 b0 67 bf 9d c3 8d bf
       -0.33261418 -0.23933376 -0.9050298 -1.1075321
000110 77 97 0d bf b8 8b de be 44 d1 80 bf 33 cb 9e be
       -0.5530924 -0.43465972 -1.0063863 -0.31014404
000120 2d 16 0f 3f 7f 1f 40 3f 69 60 87 3e 03 38 03 3f
       0.5589321 0.7504806 0.26440743 0.5125734
000130 0f 7f 77 3e b1 29 28 bd 90 29 d4 3e 40 8e 2a be
       0.24169563 -0.041055385 0.4143796 -0.16655827
000140 e6 66 b2 be 4a 16 22 be 2d 0f 1a 3e 38 48 14 3e
       -0.3484413 -0.15828815 0.15044852 0.14480674
000150 79 85 03 bf 14 a6 70 be 7f 5c c7 be 99 3e aa 3d
       -0.5137554 -0.23500854 -0.38937756 0.08312721
000160 2b 54 b6 3e 65 c6 0b 3e 97 5e a4 bd b8 d9 89 3e
       0.3561109 0.136499 -0.08025854 0.2692392
000170 1d 27 51 3e be 6b ca be 11 22 68 bd 17 c1 7c be
       0.20425077 -0.39535326 -0.056673113 -0.24683033
000180 fd 07 89 3d fc 8d b2 3e ac ac ba 3d 17 03 ac bd
       0.06690977 0.3487395 0.09114966 -0.08399027
000190 1f c2 23 3e bb 68 2b 3e 62 d3 db be 02 46 20 be
       0.1599202 0.1673917 -0.4293471 -0.15651706
0001a0 68 36 89 be dd c5 47 bd 24 f6 25 3e 65 a9 0f bd
       -0.2679932 -0.04877268 0.16207176 -0.035073657
0001b0 a0 82 6e 3d 67 ae 6c 3e 9b d9 a5 3e dd 1b 5a 3e
       0.058230042 0.23113404 0.32392582 0.21299691
0001c0 24 2e ce 3e 3f 75 03 3f 66 55 f7 bd 66 3f 9e bd
       0.40269578 0.5135078 -0.12076835 -0.07726936
0001d0 ab cf 90 3d 6e 86 f3 bd ee 8b 83 bd b9 f0 75 3d
       0.070708595 -0.11890875 -0.06423174 0.060044024
0001e0 df 76 73 3d a2 ab 97 3d d0 48 5a 3e 77 55 62 bd
       0.059439536 0.07405783 0.21316838 -0.055257287
0001f0 05 76 52 be e1 2a cf bd ba bb e2 3d d3 a8 25 3e
       -0.20552833 -0.101156004 0.11070962 0.16177683
000200 29 60 5e 3e 6a 91 58 3e 86 21 2e 3e 32 e9 92 3e
       0.2171637 0.21149221 0.17004976 0.2869354
000210 7b 19 c8 bc 1a a0 2d be be 07 1f bd 8e df 4a 3e
       -0.024426213 -0.16955605 -0.038825743 0.19811842
000220 fd 27 6f 3e 5a a2 19 3d 77 d6 37 3e ec c2 3b 3e
       0.23355098 0.037508346 0.17952906 0.18336076
000230 78 53 a8 3d 4b bb 09 3d 4d 2f a4 3c 09 bf 0b bd
       0.082190454 0.033625882 0.020042086 -0.034117732
000240 a8 51 2c 3e b1 58 8b 3e ed 45 e3 3d 38 cf c0 3c
       0.16828024 0.27216104 0.11097322 0.02353631
000250 90 1d 90 3d ad fb 54 3d f8 8a 25 be c9 e9 b1 bd
       0.070368886 0.05199783 -0.16166294 -0.08687169
000260 5c 59 8a bd 5b 11 91 bc 8b c3 1a 3e 64 54 8c 3d
       -0.06755325 -0.017708471 0.15113656 0.06852034
000270 82 6f a8 bd 9a 4b 79 3c 0b 78 73 3d be 03 87 be
       -0.082243934 0.015215779 0.059440654 -0.26370043
000280 a4 51 a7 bd 91 e4 18 bc 76 7e ac 3d 17 7e 8c 3e
       -0.081698686 -0.009331838 0.08422558 0.2743995
000290 54 8f 63 3e 6d 9d 49 bf 1c c2 95 3d 63 84 73 3f
       0.22222644 -0.7875584 0.07312414 0.9512388
0002a0 45 ed 21 bf 99 fd 83 bd c9 52 c3 3e 79 c6 0b bf
       -0.6325267 -0.06444854 0.38149098 -0.5459972
0002b0 a8 5c 41 be d2 22 92 3e e2 00 88 bf 9d 71 4c be
       -0.18883002 0.2854219 -1.062527 -0.19965215
0002c0 b9 f2 74 3f 0b f3 88 be e3 a4 90 3d 69 5e d4 3e
       0.95682865 -0.26747927 0.070627 0.4147828
0002d0 f6 94 3f bf 3d b3 20 be ba 43 a4 3e bb 97 80 bf
       -0.7483667 -0.15693374 0.3208292 -1.0046304
0002e0 67 1f cf 3c c3 f1 7c 3f 46 59 7f be 0d 3e 9b 3e
       0.025283528 0.988064 -0.24936399 0.30320778
0002f0 4f 5e ec 3e 97 5c 07 3e 09 23 98 3d fe 3d 4a 3d
       0.46165702 0.13218914 0.074285574 0.049375527
000300 18 a1 0d 3e f6 61 a1 be 6a 22 20 bf 19 64 c2 3e
       0.13830984 -0.3152005 -0.6255251 0.37966993
000310 42 80 89 3d 9a 04 48 bd f9 46 27 3d ca af 82 bd
       0.06713916 -0.048832513 0.04083917 -0.06381185
000320 af 0e 21 be f3 10 87 bd 80 d6 d4 be cb 1d 34 bf
       -0.15728258 -0.0659503 -0.415699 -0.7035796
000330 4b 29 14 3e 9e 43 0f bd 3b 49 09 be c8 3c 38 3d
       0.14468877 -0.034976594 -0.13406841 0.04497984
000340 34 4a 98 bd 90 27 39 be a1 34 da bd 15 d5 b1 be
       -0.07436028 -0.18081498 -0.106545694 -0.3473288
000350 30 6e 24 bf 7d 12 14 3e 2b 6c dd 3d a5 11 27 bd
       -0.6423063 0.14460178 0.10811647 -0.04078831
000360 32 56 86 be 69 aa 69 bf 0b c4 10 bf 6c 12 4a be
       -0.26237637 -0.9127565 -0.5654914 -0.1973359
000370 20 98 cc be 2a 86 98 be 76 e5 2d 3f be 13 ae 3f
       -0.39959812 -0.2978986 0.67928255 1.3599775
000380 50 de 6f 3f cb b6 b8 be 54 87 53 bf 66 ec ff be
       0.93698597 -0.3607696 -0.8262837 -0.49985045
000390 18 dd 6b be 44 dd 85 be 28 c2 92 be 79 25 1e 3f
       -0.2303356 -0.26145375 -0.28663754 0.6177593
0003a0 40 d8 a4 3f 17 14 41 3f 75 db 88 be 7a fc 25 bf
       1.2878494 0.7542128 -0.26729932 -0.64838374
0003b0 14 6d d9 be d4 74 61 be c7 da 5e be 54 cf 72 be
       -0.42466033 -0.22017223 -0.21763144 -0.23711902
0003c0 97 a6 e5 3e 7c c3 79 3f 27 15 00 3f 0c 99 e1 3e
       0.4485366 0.9756391 0.50032276 0.44062078
0003d0 17 86 0e bf a4 db 5a 3e c5 15 b9 be 11 50 be bf
       -0.55673355 0.21372849 -0.3614942 -1.4868184
0003e0 8a 53 1d be 88 88 0b be 82 26 1d bf d8 c8 66 be
       -0.15363899 -0.13626301 -0.61386883 -0.22537553
0003f0 f1 b7 47 3d e5 55 8e be 09 72 c7 3d 30 02 be bd
       0.048759405 -0.27799907 0.09738547 -0.09277761

bn1.weight f4 [16]
000000 de c7 16 3f c8 dd 5c 3f a5 a2 1f 3f e9 09 6b 3f
       0.58898723 0.8627591 0.6235755 0.91811997
000010 10 65 06 3f a5 45 1d 3f e8 12 54 3f b4 65 a6 3f
       0.5249796 0.61434394 0.8284135 1.2999787
000020 fe 1b 5f 3f ef 7e e6 3e d8 8d 3a 3f 2e bf 49 3f
       0.8715209 0.45018718 0.72872686 0.7880734
000030 99 d9 0b 3f 27 ec 4d 3f b3 46 42 3f ab 2a bb 3b
       0.546289 0.80438465 0.7588913 0.0057118735

bn1.bias f4 [16]
000000 8c 87 f7 3e 0e 86 4b 3f a6 ae 00 3f 1a ab 58 bf
       0.48345602 0.79501426 0.5026649 -0.8463608
000010 76 d9 1b bb d8 b7 0b bf 0e 20 a0 3e 36 18 49 bf
       -0.002378074 -0.545774 0.31274456 -0.7855257
000020 f1 d0 31 3f 7a c0 57 3f 7f 6e 74 be bc 12 c8 3f
       0.69459444 0.8427807 -0.23870276 1.5630717
000030 b3 d6 90 3e 47 eb e8 3e 38 1e 10 bd 56 25 5b bc
       0.28288803 0.45492002 -0.03518507 -0.013375601

bn1.running_mean f4 [16]
000000 1b 70 1f bd 74 93 48 3e 12 b3 06 3d 85 e9 7e 3e
       -0.03892527 0.19587499 0.03288562 0.24893768
000010 e9 37 34 bf 5d 94 b0 be a1 de af 3c bf 07 50 3f
       -0.7039781 -0.34488192 0.021468462 0.8126182
000020 1c 7d ab bd 47 f7 bd 3e 55 b0 fc 3e 41 a6 ec bd
       -0.08373472 0.3710272 0.4935328 -0.11555148
000030 36 ec 0d be f6 46 ad bd f6 1f 59 3f e8 4d 35 3d
       -0.13859639 -0.084608 0.84814394 0.04426375

bn1.running_var f4 [16]
000000 5e 88 a9 40 11 5c fa 40 7c 5c 35 40 1e eb 44 40
       5.2978964 7.8237386 2.8337698 3.0768504
000010 0e 47 1a 41 73 c7 3b 40 0e f4 af 41 f7 68 67 41
       9.642347 2.9340484 21.994167 14.463126
000020 9f 9f 15 42 4f dc aa 40 8e 6e c2 40 a2 2c 75 40
       37.40588 5.339393 6.0759954 3.8308492
000030 11 ab 1e 41 d4 46 5a 41 ee c3 5d 41 21 10 07 3d
       9.916764 13.642292 13.860334 0.032974366

layers_2n.0.conv1.weight f4 [16, 16, 3, 3]
000000 30 ec 7b 3d a3 69 0a 3e f1 07 68 3d 31 9e 8c be
       0.061504543 0.1351686 0.0566482 -0.2746444
000010 23 3f 67 be 87 54 59 3e 81 55 8e 3c 3f 4a 6b bc
       -0.22582678 0.21223651 0.017374756 -0.014360963
000020 d4 c0 85 bc a3 09 a5 be bf 3e ee be 31 f6 b6 3e
       -0.0163273 -0.32233915 -0.46532246 0.35734704
000030 c0 64 a3 ba 6e 17 85 3f de 30 2c bf 71 3c 46 be
       -0.0012465939 1.0397775 -0.67262065 -0.19358994
000040 0c ca 84 be f7 04 36 3e 57 a7 d2 bd 76 e5 fb bd
       -0.259354 0.17775331 -0.10285824 -0.122996256
000050 16 c5 2a 3d 74 8f 1e be bd 1d 0a be e5 76 99 3e
       0.041691862 -0.1548441 -0.13487907 0.29973522
000060 df 9b 1f bc a9 1b 2e bd 91 53 80 3e 87 21 46 ba
       -0.009741752 -0.042506848 0.25063756 -0.00075580965
000070 85 7f 12 3d 1f cc 6f be 7a e7 a9 bd a0 fa 6e be
       0.035766143 -0.2341771 -0.08296104 -0.23337793
000080 bb b0 0d be 7b f4 2b 3d d4 88 b4 bd 2c a5 8f 3c
       -0.13836949 0.0419812 -0.088151604 0.017534815
000090 29 03 a4 be 38 92 06 be 2b 99 85 3d 7d 02 c9 bd
       -0.3203366 -0.13141716 0.06523355 -0.09814928
0000a0 4c 7b 86 3b 0f af a3 3d 7a ac a0 bd 22 23 a5 3d
       0.0041040536 0.07992374 -0.07845397 0.08063342
0000b0 bd 49 3d 3d 03 fb 1f 3a 7b 10 24 3d 38 90 a4 bb
       0.0462129 0.00061027723 0.04005478 -0.005022075
0000c0 58 75 09 3e 1b 4f 4b 3e 6a 27 12 3e 55 13 2b 3d
       0.1342367 0.19854395 0.14272848 0.041766483
0000d0 4d f7 2e 3d bd 8f 2e 3e d4 71 27 be 63 49 98 3c
       0.042716313 0.1704702 -0.16352016 0.018589681
0000e0 d1 72 5d be 56 e4 63 be af 61 9d 3e da ae 85 3e
       -0.2162583 -0.22255072 0.3073859 0.26109964
0000f0 7d da c5 3d c2 a2 4f 3e a7 be d8 bd 91 1c 00 bf
       0.09660814 0.20276931 -0.10583239 -0.5004359
000100 05 01 c5 bd 0f 74 98 be ea f5 e9 3e 8a 8f e1 3d
       -0.09619335 -0.29776046 0.4569543 0.11013706
000110 e0 6a da be 87 ce 6a 3e 4e 7c 5f 3e c4 16 24 be
       -0.42659664 0.22930346 0.21824762 -0.1602431
000120 7e 33 aa be bf 7c 9d be 7b 2e 6e bd 00 82 90 3c
       -0.3324241 -0.30759236 -0.058149796 0.017640114
000130 3a f0 08 3c 26 0b 9a bd c8 5b 39 bd 8f fe 70 3e
       0.008358056 -0.07521658 -0.045253545 0.23534606
000140 04 ab 78 bd 65 4b 44 3c 25 49 03 be c4 08 47 3e
       -0.06070997 0.011980866 -0.12820871 0.19436938
000150 0a 75 4f be 9a d8 01 3e 60 a6 ba 3a 03 7e 6d be
       -0.2025949 0.12680283 0.0014240257 -0.23192601
000160 20 02 69 3d 46 0b 9b be 89 ad 90 be c2 92 72 be
       0.056886792 -0.30282038 -0.28257397 -0.23688796
000170 98 2f 9e bd 46 19 78 bb 2d e4 14 3e 39 26 56 3d
       -0.077239215 -0.003785686 0.14540167 0.052282546
000180 39 4e 33 3e ca 9f 81 3e ce f7 ad 3d 2c 71 30 be
       0.17510308 0.25317222 0.084945306 -0.17230672
000190 0f 1c 84 3e c6 53 22 bd a8 8a 2a 3f ae b9 a9 bf
       0.25802657 -0.039630674 0.6661782 -1.325979
0001a0 d6 b4 3c 3f 5a 24 1b 3d 60 00 04 bf 8b a4 03 3f
       0.73713434 0.037876464 -0.5156307 0.5142295
0001b0 82 14 9c 3e 63 03 b4 3c 28 8d 44 3e 2b c5 f9 3d
       0.30484396 0.021974271 0.19194472 0.1219581
0001c0 e9 3c 46 be b4 f7 89 3e 8d fe e9 bc 21 bd 1f be
       -0.19359173 0.26946795 -0.028563762 -0.1559949
0001d0 79 27 94 3c 72 80 61 bc 41 d1 ce bd 4f 9d 30 be
       0.018085228 -0.013763534 -0.10098506 -0.17247508
0001e0 59 40 d8 3e 3e 56 0f bf 93 11 cd be 83 2e 2d 3e
       0.42236593 -0.5599097 -0.4005247 0.16912274
0001f0 32 15 ce 3d 16 d5 85 bd d6 32 50 3d a6 58 09 3e
       0.100626364 -0.065347835 0.05082973 0.13412723
000200 57 57 b1 3e 2f ad 84 be 8e 0f 6d 3d d3 e0 f8 3e
       0.34636948 -0.2591338 0.057876162 0.48609027
000210 22 55 4b 3c 5a 4b 43 be 9a 53 3a 3d 76 e2 02 ba
       0.012410434 -0.19071713 0.045489885 -0.0004992852
000220 34 c2 2a ba 59 83 c0 3a 78 4b c3 3a 2c ca 23 ba
       -0.0006513924 0.0014687582 0.0014899811 -0.00062480825
000230 19 22 53 ba 08 7c 8b 3b ee 0b 25 3b 2e 60 2e 3b
       -0.0008054092 0.004256729 0.0025184113 0.002660762
000240 4e ac 96 3e 87 a6 db 3e d1 fe 25 3e 7c 3c 89 3e
       0.29428333 0.42900488 0.16210486 0.26803958
000250 fc 90 ba 3e 7a da 9b 3d 4d a2 ab 3d 03 31 4c 3e
       0.3643874 0.076100305 0.08380566 0.19940571
000260 f1 5b 1f bc 2f 9b 60 be e8 36 73 be 52 c5 c9 bd
       -0.00972651 -0.21934198 -0.23751414 -0.09852089
000270 f7 3a d3 3d 60 29 a8 3d df 4e 3b 3e 39 a1 59 3d
       0.10313981 0.08211017 0.18291806 0.05313227
000280 0f d1 dd 3d e9 03 03 be c9 80 23 3e 1a 07 52 3d
       0.108308904 -0.1279446 0.15967096 0.051276304
000290 09 40 88 3d a3 e6 10 3e cf d8 21 3d 32 ed d5 3c
       0.06652839 0.14150481 0.039513405 0.02611408
0002a0 ff f1 8e 3d df 74 1e bd 59 de a5 3d ea 95 90 3d
       0.06979751 -0.038685676 0.0809905 0.07059844
0002b0 d9 8b 93 3d f6 0a 0b 3e ee fc 61 3e b5 6e 2a 3e
       0.07204408 0.135784 0.22069141 0.16643794
0002c0 f3 42 58 3e ae 39 4b 3c fc 37 43 bc 92 66 84 3d
       0.21119289 0.012403889 -0.011915203 0.06464876
0002d0 61 f1 54 3e 1d 71 22 3e 10 a0 2d 3e ce 1e 5b 3e
       0.20795204 0.15863462 0.1695559 0.2139847
0002e0 e6 5f 2a 3e 28 0e 04 3e 24 39 8f 3d f0 f0 66 3d
       0.16638145 0.12896025 0.069933206 0.05638212
0002f0 3e 81 4e 3d c1 80 1a 3e 43 bb 10 3e 1f d0 ea 3d
       0.050416224 0.15088178 0.14133935 0.11465477
000300 db d9 3f 3e 4f 01 5a 3e a3 ef 26 3e ac bc 06 3e
       0.18735449 0.21289562 0.16302352 0.1315791
000310 0e fe f8 3d 63 34 98 3d 6b c4 70 be 87 1f 29 be
       0.12157832 0.07431867 -0.23512428 -0.16515933
000320 84 1d a3 bc cd 4a e9 bd cc d9 0a be ac 73 b5 bd
       -0.019911535 -0.1139122 -0.13559645 -0.08859953
000330 18 53 0e be 58 fe 73 bd 1c 2b c5 3d 17 9e d2 3d
       -0.13898885 -0.059568733 0.09627363 0.102840595
000340 d5 33 0d bc fd 5a 7b 3b e2 fe 3c 3e e7 d4 f6 3d
       -0.008618315 0.0038353794 0.18456605 0.12052327
000350 08 dd 20 3e 0e 1c 3f 3d 19 83 36 bd da d7 5a bd
       0.15709317 0.046657614 -0.04455862 -0.05342851
000360 ce ba d2 bd d4 cf 0c 3d db 9a 93 bd 31 cf f5 3d
       -0.102895364 0.034377888 -0.07207271 0.12002409
000370 2e ea fa 3d 66 2a 03 3e 2e 95 f1 3c ad 58 24 3b
       0.122516975 0.12809142 0.02949008 0.002507727
000380 b3 12 a8 3d 3a 17 d9 3c 53 7a 07 3e 04 4e 30 3d
       0.082066916 0.026500333 0.13230257 0.04304315
000390 0e 21 97 3b ab 1a 95 3d 40 f0 48 3c bf 61 c2 bd
       0.0046120947 0.07280477 0.012264311 -0.094913
0003a0 6a af fa 3b 62 32 d6 bd 16 32 ca 3c 9a db 6f 3d
       0.0076503055 -0.104588285 0.024682086 0.058559038
0003b0 c5 69 20 bd 95 dc 77 3d 9e 81 83 3d 01 48 9b 3b
       -0.03916337 0.060513098 0.06421207 0.004738808
0003c0 46 61 26 3d 44 d3 9e 3d 8f 11 aa 3c a9 e7 d9 3c
       0.04062011 0.077551395 0.020760326 0.026599722
0003d0 4e 2d c9 bd 3d be f1 3d b5 88 65 be 01 91 c2 be
       -0.09823094 0.11803863 -0.22415431 -0.38001254
0003e0 5c 2e a0 bd d5 6e 10 3e 3d 2e 7f be c2 3e 7d 3e
       -0.07821342 0.14104779 -0.24919982 0.24730971
0003f0 72 48 f1 3d f4 4a 2a 3e 42 0b 50 3e 53 7e 0e 3e
       0.11781396 0.16630155 0.20316795 0.13915376

layers_2n.0.bn1.weight f4 [16]
000000 76 98 96 3f f2 11 34 3f e1 2d 2d 3f cc 0a 7b 3f
       1.1765277 0.7033988 0.6764813 0.9806335
000010 69 0b 2f 3f 3a 9c a1 3f db 64 1b 3f 38 a2 86 3f
       0.68376786 1.2625802 0.6070077 1.0518255
000020 8e b1 85 3f 26 9a 16 3f b5 83 43 3f 0a f9 1e 3f
       1.044481 0.5882896 0.76372844 0.62098753
000030 c7 46 0a 3f f1 5f 78 3f 13 8d 47 3f 07 2b 1e 3f
       0.5401425 0.97021395 0.7794964 0.61784405

layers_2n.0.bn1.bias f4 [16]
000000 3a 60 e7 3e e2 c9 96 be ad 13 51 3a be ae eb be
       0.45190603 -0.294509 0.0007975649 -0.46031755
000010 5e f9 c6 bc ab 3f cc 3e 5f 69 43 3f 24 21 cc 3e
       -0.02428883 0.39892325 0.7633266 0.39869034
000020 10 e0 b1 be 88 f9 af 3e 9a cc d8 bd 28 9f 20 3f
       -0.3474126 0.34370065 -0.105859 0.62742853
000030 72 8d 70 3e 76 1a 04 bf 88 47 10 be e9 94 32 3e
       0.23491457 -0.51602876 -0.14089787 0.17439617

layers_2n.0.bn1.running_mean f4 [16]
000000 9d 4e 53 bf 05 e7 77 3f 63 52 24 c0 d2 93 18 3f
       -0.8254183 0.9683688 -2.5675285 0.59600556
000010 ba 79 2c c0 68 cb e4 bf 59 1c 3d 3f 47 68 72 bf
       -2.6949296 -1.7874575 0.7387138 -0.94690365
000020 98 21 85 3f c9 7d 17 c0 9b 76 b6 3f 11 88 1d c0
       1.0400877 -2.3670523 1.4254946 -2.4614298
000030 d0 73 a1 bf 00 39 f2 3e 31 48 a3 c0 2d 80 3c c0
       -1.2613468 0.47309113 -5.1025624 -2.9453232

layers_2n.0.bn1.running_var f4 [16]
000000 00 6e b9 40 5b 86 e7 3f d4 72 08 40 1f 6a 2a 40
       5.7946777 1.8087877 2.1320086 2.662727
000010 39 88 93 3f 53 e9 cc 40 4c 51 c6 3f cb a3 8c 40
       1.1525947 6.403482 1.549356 4.3949943
000020 bc 4a 26 40 a2 26 fd 3f 2b 7e 3f 40 5f 18 0b 40
       2.5983114 1.9777415 2.9920757 2.1733625
000030 15 58 ef 3f 96 fa ee 3f 7b 2a 69 40 99 5d 19 40
       1.8698756 1.8670223 3.6432178 2.3963377

layers_2n.0.conv2.weight f4 [16, 16, 3, 3]
000000 63 ab ce bd 27 1e e4 3d a3 51 b6 3e f4 3d 8b bd
       -0.10091283 0.111385636 0.3560916 -0.06798926
000010 62 fe cf 3d 00 b2 64 3e b3 bf 76 3b 2a e8 81 3d
       0.101559415 0.22333527 0.0037650883 0.0634311
000020 0f 50 68 3e 12 3c 9c be 04 71 18 be 42 cd 37 be
       0.2268679 -0.3051458 -0.14886862 -0.17949393
000030 33 17 86 be 5a 4a fc bd e3 c0 b2 bd 5e f6 11 be
       -0.26189575 -0.12318869 -0.087281965 -0.14254138
000040 a4 bd 52 3b 52 aa 50 bd 31 45 c5 3c 54 3e 6e 3e
       0.0032156492 -0.05094368 0.024080845 0.23265964
000050 73 ba 80 be 7f 20 bc 3d 76 48 d8 3e b4 be e0 bd
       -0.2514225 0.09185886 0.42242783 -0.10973874
000060 b5 6a db 3c cc 09 01 3f 93 46 18 3e 08 06 27 3d
       0.02678428 0.50405574 0.14870672 0.040777236
000070 cf 73 f3 3d 94 3f 21 be 17 bb 00 3d e4 f1 31 bc
       0.11887323 -0.1574691 0.031428423 -0.010860894
000080 19 4a 88 be 94 b4 dd bd 6e 68 32 be e2 56 93 be
       -0.26619032 -0.10825458 -0.1742265 -0.28777224
000090 55 ae ab be 62 b8 84 be bd 4b 3e bd e8 4e 89 be
       -0.33531442 -0.25921923 -0.04645895 -0.26818013
0000a0 7f 32 af bd a5 a7 bf 3e 65 99 32 bd 2e 54 86 3e
       -0.08554553 0.3743259 -0.04360332 0.262361
0000b0 33 40 3e 3f b8 4a 68 be 73 cb 43 3d ae 66 71 3e
       0.7431671 -0.22684753 0.047801446 0.23574325
0000c0 03 19 82 be 33 62 87 3d 42 47 38 3e ad a7 2f be
       -0.25409707 0.06610527 0.17995933 -0.17153807
0000d0 09 6f 14 be 7d d8 8c 3c 8a bc 16 be 92 80 01 bf
       -0.14495482 0.017193073 -0.1472036 -0.5058681
0000e0 5f 80 8e bc 3d 34 85 3d 7c 06 8a be 66 69 0e bd
       -0.017395196 0.06504104 -0.26958072 -0.034768485
0000f0 73 ac 61 3e 12 91 68 3e 61 02 af 3e ac 75 cf 3d
       0.2203844 0.2271159 0.34181502 0.10129866
000100 2e 32 c9 bd 74 82 8e bd c0 72 02 3e 33 fe 9f 3d
       -0.09824024 -0.06958476 0.12739086 0.078121565
000110 6d a9 dd 3d 34 70 b5 3d 70 92 32 3e 71 57 4b 3d
       0.10823331 0.08859292 0.17438674 0.049643937
000120 5b e2 05 3e a9 2b 37 3d e0 6a ab bd a5 b7 02 3e
       0.13074629 0.044719372 -0.08369994 0.12765367
000130 ac d2 05 bd a8 11 18 be a0 48 0d bd 2e 56 35 bd
       -0.032671615 -0.14850485 -0.03449309 -0.04427164
000140 37 a7 07 bc 3e b8 87 3d 47 e8 4d be 01 a0 db be
       -0.008279613 0.06626938 -0.20108138 -0.4289551
000150 90 94 6e 3e 71 7f 3f 3d e1 54 26 be 95 bc b6 3e
       0.2329886 0.046752397 -0.16243316 0.35690752
000160 c3 90 b8 3e b8 74 a6 3e c0 76 83 3d cf 96 13 3d
       0.36047944 0.32510924 0.06419134 0.036032494
000170 f0 c4 ae 3b e9 33 e1 bd fa cf 70 bc b9 d5 f1 3d
       0.0053335354 -0.10996229 -0.014698023 0.118083425
000180 26 d0 f1 bd ad bd 6c 3c 0c cf 0d 3e 5a 1b 1b 3f
       -0.11807279 0.014449519 0.13848513 0.6058861
000190 b3 ca 80 3e fb 5b ea be 14 f5 09 3f b0 4b 26 3e
       0.25154647 -0.457733 0.53889585 0.1623981
0001a0 99 01 04 bf 3a 89 bf 3e 24 9f 8c bc ec 36 b2 be
       -0.5156494 0.37409383 -0.017165728 -0.34807527
0001b0 a5 72 2c 3d 59 b4 3c 3e d7 ec 8d 3e 4a a5 48 be
       0.04210152 0.18428172 0.27719757 -0.19594303
0001c0 2c c4 e4 bd e7 5a 96 bc 77 3f 8f be 5e b7 bb be
       -0.11170229 -0.018353892 -0.27978107 -0.36663336
0001d0 ab db d3 be 5b b0 f4 3d ab 55 e2 bd 57 6d bd bd
       -0.4137853 0.119477 -0.11051496 -0.092493705
0001e0 92 ff fa 38 5d a5 96 bd 76 ff c3 bd 6e 66 c8 bd
       0.000119685326 -0.07355759 -0.0957021 -0.09785162
0001f0 bb 63 3d be 76 9a 03 be 52 20 98 bc 7c 45 a6 bd
       -0.18495075 -0.12851891 -0.018570099 -0.08118722
000200 11 66 00 bd dc 99 ef 3c 3b 98 2e 3d 30 bf 47 3d
       -0.031347338 0.02924817 0.042625647 0.048766315
000210 f5 77 63 3c 90 c6 0c ba e5 0a c3 3c 03 6d 05 be
       0.01388358 -0.0005370164 0.023808906 -0.13029866
000220 6e 6b 83 3c 4c 09 ff 3d 9d 57 5f be cb de 18 be
       0.016042437 0.12452945 -0.21810766 -0.14928739
000230 13 b5 be bd 80 b7 42 be d1 f0 e3 bd 5f 9f 0d be
       -0.09311881 -0.19015312 -0.111299165 -0.13830326
000240 ee 8d c4 3c 01 4a 84 be a8 c8 d4 bd 35 a8 6e 3e
       0.023993459 -0.2583771 -0.10389835 0.23306353
000250 a8 db 00 3f e9 26 cc 3e 4e b6 26 be 81 36 f7 be
       0.5033517 0.39873436 -0.16280481 -0.4828377
000260 e9 46 56 be b1 14 8a bc 82 ac de bd 01 40 8e ba
       -0.20925488 -0.01685557 -0.10872747 -0.0010852815
000270 90 d1 34 be 83 21 ab bd 10 d7 65 bd a5 ca e8 3d
       -0.17658067 -0.08356001 -0.056113303 0.113667764
000280 26 1a 0e 3e 10 d4 09 3e 27 18 36 3d 51 a2 3d bd
       0.13877162 0.13459802 0.044456627 -0.046297375
000290 a9 99 03 3d f1 9b df bd a6 73 8c be 92 c4 41 be
       0.032128964 -0.10918415 -0.27431983 -0.18922642
0002a0 a1 d1 1d bc a6 ff b7 3d bd ec 38 3e f4 67 2f be
       -0.009632499 0.08984308 0.18059058 -0.17129499
0002b0 d6 41 29 be f3 ec 4e be 85 51 84 3e 8f 07 38 3e
       -0.1652902 -0.20207576 0.25843444 0.17971633
0002c0 e8 ce fb 3d 15 58 67 bd 11 67 0d bc 55 85 a3 bd
       0.122953236 -0.056480486 -0.00863053 -0.079844154
0002d0 67 d3 13 3e 1b 38 5b 3e db 76 bb bc 59 fb 44 3e
       0.14436112 0.21408121 -0.022883823 0.19236507
0002e0 f3 18 1d bd 38 69 70 bd 08 f4 92 bd ee b2 d3 3c
       -0.03835387 -0.058694094 -0.071754515 0.025842156
0002f0 67 cb a2 bb b4 ac 40 3f b5 fc 52 3f cc 75 a3 3d
       -0.004968095 0.75263524 0.8241685 0.07981452
000300 93 e9 8c bf dc 63 86 bf 6a 3d 84 be f1 a7 08 3f
       -1.1008781 -1.0499225 -0.25828105 0.5338126
000310 bb 85 44 3f e3 8c 86 3d 23 7c 17 be 7e 4c 2c 3d
       0.76766557 0.06569841 -0.14793448 0.042065136
000320 4b f6 78 bc ce 5e 1b bd e8 02 02 bf c1 85 5a bd
       -0.01519544 -0.03793221 -0.50785685 -0.053350214
000330 a2 76 8e 3c df 23 98 3d 64 d3 94 3c 57 34 55 3d
       0.017390553 0.07428717 0.018167205 0.05205187
000340 4a fa 27 3f 70 76 16 3e 2d 48 56 be c2 40 89 bf
       0.65616286 0.14693618 -0.2092597 -1.0722888
000350 a8 da ec be 5d dd e9 bd 03 be 0e 3f 84 21 2b 3d
       -0.4626057 -0.11419175 0.55758685 0.04178001
000360 08 e4 a9 3d 5b 8a 68 3e 22 03 30 3e 62 5a ce be
       0.08295447 0.22709028 0.17188695 -0.40303332
000370 3c 3c bc be 36 5e 08 bf 24 a8 2c 3e 2f 04 34 3c
       -0.36764705 -0.53268754 0.16861016 0.010987326
000380 9f f5 02 be 43 d7 75 be 8f f1 9b bd c6 f9 bc bd
       -0.1278901 -0.24007897 -0.07614433 -0.09227328
000390 60 60 ec 3e bb 17 13 3f cd 5c b0 3e 92 94 9a bd
       0.46167278 0.57458085 0.344458 -0.07547869
0003a0 90 28 b8 bb 77 0d 71 3d 16 8f 73 3e d6 31 47 3c
       -0.00562007 0.05885073 0.23785052 0.012157878
0003b0 d2 8f ea 3d bc 02 c6 bb a5 38 35 3d 13 df bf bd
       0.11453213 -0.0060428064 0.044243474 -0.0936872
0003c0 56 bb 39 be 47 28 4d be 56 04 d1 bd aa 0f 28 bd
       -0.18137869 -0.20034896 -0.10205905 -0.041030563
0003d0 f0 70 b6 3e 9f 64 24 3e 17 e6 1e 3e 2e d6 b9 be
       0.3563304 0.16054009 0.1551746 -0.3629622
0003e0 46 99 a4 be 09 2a e9 3c a9 a6 08 3e 6c f0 d5 bc
       -0.32148188 0.028462427 0.13344826 -0.026115619
0003f0 54 3e 89 be 04 fa e0 bc 0a 17 a6 3d 72 c1 4a be
       -0.26805365 -0.027462967 0.08109863 -0.19800356

layers_2n.0.bn2.weight f4 [16]
000000 35 1d ea 3e ec 28 8f 3f ee b6 ec 3e 60 0d 1d 3f
       0.45725408 1.1184363 0.46233314 0.61348534
000010 e8 5c b5 3e 94 ca 58 3f 14 11 59 3f c1 03 0e 3f
       0.35422444 0.8468411 0.84791684 0.5547448
000020 ab d6 a2 3e 59 4a e5 3e db 66 76 3f 86 59 0c 3f
       0.31804404 0.44783285 0.96250695 0.548241
000030 46 8f f7 3e 9f 5a 9c 3f 31 75 5e 3e 0b 93 45 3f
       0.48351496 1.2215155 0.21724392 0.77177495

layers_2n.0.bn2.bias f4 [16]
000000 39 e2 cb bc 7b c3 66 bf 56 44 a4 bf 46 f7 9a 3e
       -0.024888145 -0.9014203 -1.2833354 0.3026678
000010 6f e0 b0 3d 9f 1b 12 bf b9 cb 37 3e 4c bc 18 bf
       0.08636557 -0.57073396 0.17948808 -0.5966232
000020 1d 5f 9a 3d 5b 6d a8 be a7 39 2f 3e 63 b0 36 be
       0.07537673 -0.32895932 0.17111836 -0.17840724
000030 e7 1b 9a 3e ac 45 8f 3e 60 02 fe 3d 6b 9e 66 3d
       0.30099413 0.27982843 0.12402797 0.056303423

layers_2n.0.bn2.running_mean f4 [16]
000000 6f 1b 22 3f b2 62 f8 bd 9b 29 19 bf 1d 97 e1 bf
       0.6332311 -0.121282 -0.5982911 -1.7624241
000010 e7 69 a1 3f 87 f4 a6 bf b1 e2 a0 bf 71 e4 cd 3f
       1.2610444 -1.3043374 -1.2569181 1.608534
000020 ea f4 40 bf f7 ce 77 3f 5f 4a ec bf 6a 43 80 be
       -0.7537371 0.9680018 -1.8460196 -0.25051433
000030 ca 50 15 c0 25 16 55 bf fb a9 95 bf 2a 57 08 3e
       -2.333056 -0.83236915 -1.1692499 0.133145

layers_2n.0.bn2.running_var f4 [16]
000000 1e 42 00 40 97 56 1d 41 7b 55 3a 3f 91 03 39 40
       2.0040355 9.83364 0.7278668 2.8908427
000010 00 45 09 40 41 aa 00 40 23 d0 f6 40 08 01 2f 40
       2.1448364 2.0103915 7.7129073 2.734438
000020 19 ae 44 40 b8 2e 04 40 fd 93 6a 40 a8 5b fc 3f
       3.073126 2.0653515 3.6652825 1.9715471
000030 bf c5 7d 40 b0 0f e4 40 bd eb c5 3f 44 8f 83 40
       3.9651945 7.126915 1.5462567 4.1112385

layers_2n.1.conv1.weight f4 [16, 16, 3, 3]
000000 df 97 21 3e 68 d9 fe 3c ff 91 be bc d3 58 2f be
       0.1578059 0.031109527 -0.023262976 -0.17123728
000010 71 25 09 be 45 90 63 3d 14 a0 3e be cc 98 2a 3e
       -0.13393189 0.055557508 -0.18615752 0.1665985
000020 5c aa 0d 3e 67 cd 9c be aa 79 03 be de e4 0e be
       0.13834518 -0.3062546 -0.1283938 -0.13954493
000030 75 db 44 be 90 a8 50 3d e1 55 4a 3e 33 c9 c0 bd
       -0.19224341 0.050942004 0.19759323 -0.09413376
000040 b3 19 3c 3d 68 6d e2 be 22 0a 6f bd 8b b8 43 be
       0.045922946 -0.44224095 -0.058359273 -0.19113366
000050 87 8d 2e be 23 b3 30 be 83 ce 80 be 97 e5 f3 bd
       -0.17046176 -0.17255835 -0.25157556 -0.11909025
000060 70 29 35 be b4 24 4f bd 1e 9a 60 3e 0a ad d3 3d
       -0.17691588 -0.050572112 0.21933791 0.10335739
000070 2d 79 1f 3e 77 0f 57 3a 28 37 36 bc 3e ec fe bd
       0.15573569 0.00082039036 -0.011121549 -0.12447403
000080 0a 68 83 be 06 09 fc 3d d9 db 2f be d1 2a 2a 3d
       -0.25665313 0.123064086 -0.17173709 0.04154474
000090 5c d0 82 bc f3 81 14 3e aa de 8f 3d a5 ca 80 bd
       -0.015968494 0.14502697 0.07024892 -0.062886514
0000a0 2b c8 0c 3e 0e 53 92 bb 9f b0 bd bc a9 ed cd bb
       0.13748233 -0.0044654673 -0.023155509 -0.006284435
0000b0 a9 ba f2 bd 8b ee b7 be 5c df d2 3c 36 a4 f7 3d
       -0.11852009 -0.3592418 0.025741272 0.120918676
0000c0 50 13 b1 3d 1a 0e a6 3e 75 61 86 3d 7f 00 4f 3e
       0.08646262 0.32432634 0.06561557 0.20215033
0000d0 5a 4a 2b 3e 86 9d 49 be d5 ca 2f be ed 14 1b bf
       0.16727582 -0.19688997 -0.17167218 -0.60578805
0000e0 1b 8e 6a be 69 e8 e1 be e7 13 38 bd c4 47 4b 3f
       -0.22905771 -0.44122627 -0.044940855 0.7940638
0000f0 b8 cf 4b bd 33 75 3d 3f ac af 6a 3e 81 34 de bc
       -0.049758643 0.74006957 0.22918576 -0.027124645
000100 9c 4a e2 3c ea b7 f3 3c e0 99 af bd 40 54 cd bd
       0.027623467 0.029750783 -0.08574271 -0.10025835
000110 82 98 eb bd 86 04 53 3e 3d 8b ca ba 5b 15 89 bd
       -0.11503698 0.20607194 -0.0015452873 -0.06693526
000120 69 81 53 bd 6f 37 eb be 23 d1 02 be 7c 03 bd be
       -0.051637087 -0.4594073 -0.12775092 -0.3691672
000130 ee 0c 31 be 95 08 8e 3e 52 16 b4 be 92 d8 5e 3e
       -0.17290089 0.27740923 -0.3517328 0.21762303
000140 1f 6f 1c 3f e8 f7 80 be 60 fa b6 be 78 bb d9 bd
       0.6110706 -0.25189137 -0.35737896 -0.1063146
000150 1d bb 77 be 98 31 08 be f2 54 d2 3e ad a2 f1 bd
       -0.24192472 -0.13300169 0.41080433 -0.11798606
000160 c4 54 21 3e 9b 52 be 3d 58 71 d8 bd 96 77 01 be
       0.15754992 0.092930995 -0.105684936 -0.12643275
000170 93 4c f3 be ad 87 a2 3d 43 db 8a be 98 7a 9c 3d
       -0.4751936 0.07936034 -0.27120408 0.076405704
000180 df 30 ea bd 39 5a 36 be 7c 80 75 3e 83 dc ae 3c
       -0.11435103 -0.17807855 0.23974794 0.021345383
000190 a9 2a 4d 3e bd d8 e3 3d 61 de c1 3e 38 bf 2b 3d
       0.20035805 0.11125324 0.37864974 0.041930407
0001a0 05 99 c8 be 41 22 51 3e 14 f3 d4 be a8 82 2b bd
       -0.39179245 0.20423223 -0.41591704 -0.04187265
0001b0 23 86 6c 3e db df 30 3e da 14 a7 bd 93 58 de 3d
       0.23098044 0.17272894 -0.08158274 0.10856738
0001c0 14 04 9a be c4 62 f2 bd 2a d6 48 bc f3 e2 54 3c
       -0.30081236 -0.11835244 -0.012258092 0.012993562
0001d0 93 92 8c 3e c9 3f bf be 76 30 b7 3e f0 5a 7b 3e
       0.27455577 -0.37353352 0.3577916 0.24546409
0001e0 0d ad 3a 3f da e4 f5 3e 7b ce f3 be 71 ee db 3c
       0.72920305 0.48026162 -0.4761847 0.026847096
0001f0 11 b6 36 bf b5 ff 2a be 6a c9 1f 3d 65 b8 f4 bc
       -0.7137156 -0.16699107 0.039010443 -0.029873082
000200 fd 6c 87 3e c9 16 d5 bc 5d 6e b6 3c 86 b5 93 3e
       0.2645034 -0.026011841 0.022269422 0.2884943
000210 58 08 b5 3d fe e9 64 3d 85 9a 42 3d ae c2 21 be
       0.08839482 0.055887215 0.047510643 -0.1579692
000220 9f 2e 9a 3d 8d 51 57 3c ff 90 4c 3e ea 16 84 3e
       0.075284235 0.013142002 0.19977187 0.25798732
000230 02 44 83 be 29 41 92 be 41 ad d2 be 30 20 06 bf
       -0.25637823 -0.28565338 -0.41147807 -0.52392864
000240 6a 0b 93 3d a8 58 81 3e 09 3a 83 3e 9f a0 f1 bd
       0.071799114 0.25262952 0.25630215 -0.11798214
000250 6b c0 7b bd 92 01 aa bd 77 1a 2f bd ee b0 33 3d
       -0.0614628 -0.08301081 -0.04274985 0.043869905
000260 0b 3f 97 3c 29 91 11 bd 62 79 11 be 92 3d 9f be
       0.018462678 -0.035538826 -0.1420646 -0.31101662
000270 66 83 17 3d fc a3 83 bc 88 35 b5 3c 0f f0 46 be
       0.036990546 -0.016069405 0.022120252 -0.19427513
000280 b8 c7 02 bf 5f e6 0a bf 65 12 37 3e 22 75 b1 3d
       -0.51085997 -0.5425777 0.1787811 0.086649194
000290 70 98 4a 3c 31 e6 51 3d 21 6a 04 3e 34 c2 b8 3d
       0.0123654455 0.05124492 0.1293111 0.09021416
0002a0 3f 9f ba bd 61 1a 2c bd 2a 61 19 bd 3d 00 60 bc
       -0.09112405 -0.042017344 -0.03744618 -0.013671932
0002b0 35 88 a1 3d 5f fb 63 3d 34 67 91 bd 0a f2 07 3c
       0.078873076 0.055659648 -0.070997626 0.008297453
0002c0 1c 4e 05 be 68 b5 59 be 05 b6 07 be b8 ce 34 be
       -0.13018078 -0.21260607 -0.13253029 -0.17656982
0002d0 c8 af c7 3d 99 a3 fe 3d 75 89 9b bb da 63 0a 3d
       0.097503245 0.124335475 -0.0047466108 0.033786632
0002e0 87 20 ec 3c 95 ce 2f bd c7 a1 c4 bc 4a 53 3e bd
       0.028824104 -0.04292162 -0.024002923 -0.04646615
0002f0 81 c5 4a be 73 ad fd bc 81 ce 52 3a 7e a5 a8 3d
       -0.19801904 -0.030966496 0.0008041636 0.0823469
000300 30 49 f2 3b 97 b7 93 bd 52 4a 7e 3c d5 91 49 bc
       0.0073939785 -0.07212751 0.015520649 -0.0123028355
000310 03 16 fc bd 76 89 d8 ba 90 cb d6 3e b3 57 0c 3e
       -0.12308886 -0.0016520459 0.4195218 0.1370533
000320 6f 26 ea bd 2c f9 2b be a8 cc 81 be cb f4 7d 3e
       -0.11433112 -0.1679427 -0.25351453 0.24800412
000330 6a 95 11 be 62 7d 06 be ca 17 f5 3d 50 d7 39 be
       -0.14217153 -0.13133767 0.11967428 -0.18148541
000340 bb 77 30 be 85 57 9d bd ef 1c 02 be c2 dd ea bd
       -0.17233174 -0.07682709 -0.1270635 -0.11468078
000350 05 41 51 bd 44 df 4e bd e2 de 87 bd d4 b5 7b bb
       -0.051087398 -0.05050589 -0.066343084 -0.0038407939
000360 b1 a1 c2 bd ae de b2 3c 60 1c 6e 3e f1 ca bf be
       -0.095034964 0.021834698 0.23253012 -0.3745952
000370 6e 8b 1d bf 82 b0 28 bf 6b bb b3 be e1 2a d5 be
       -0.6154088 -0.6589433 -0.35103926 -0.41634277
000380 40 de 79 be e8 3b 8f bd 93 94 26 bd a0 d7 64 be
       -0.24401188 -0.06993848 -0.040669035 -0.2234788
000390 e6 4a c3 bb 73 79 1a 3d d6 fe 3a 3d bb fd f6 bd
       -0.0059598563 0.03771348 0.045653187 -0.12060114
0003a0 53 1c 19 be 1a db cd bc bf 2b 2a 3e d9 aa 9c 3e
       -0.14952211 -0.02512889 0.1661825 0.30599096
0003b0 04 2f 3a be 0d 1b ba bc 57 1b ab bb 04 be 0b be
       -0.18181998 -0.022717977 -0.005221765 -0.13646704
0003c0 a6 4b 77 3c c7 0c 77 3e 01 03 16 be ff 1b 3a 3e
       0.01509372 0.24125968 -0.14649583 0.18174742
0003d0 df da f0 3d 30 79 a3 3e 64 c5 41 3d fe 48 86 bd
       0.11760496 0.31928396 0.047307387 -0.06556891
0003e0 28 11 c3 be 34 60 b6 bd 60 cf c0 3d e8 b3 e7 3d
       -0.38099027 -0.08905068 0.09414554 0.11313611
0003f0 76 05 05 3d 25 ab 62 3e a4 7f 53 3e 83 53 7e bd
       0.03247591 0.22135599 0.2065416 -0.06209136

layers_2n.1.bn1.weight f4 [16]
000000 30 fc 94 3f 99 07 5f 3f 10 10 67 3f d8 04 8d 3f
       1.1639462 0.8712097 0.90258884 1.1017103
000010 48 55 73 3f a2 09 9e 3f cb 58 a3 3f ac e1 6d 3f
       0.95052004 1.234669 1.2761472 0.9292247
000020 cd 5c 95 3f f5 b7 76 3f ba 1f 3b 3f 3d 0c 9f 3f
       1.1668946 0.96374446 0.73095286 1.242561
000030 63 43 87 3f cd f3 69 3f 9f 05 6c 3f 4a 10 81 3f
       1.056744 0.91387635 0.9219608 1.0083096

layers_2n.1.bn1.bias f4 [16]
000000 90 d3 96 be 08 1b 8f 3d ce f9 2d bd bf 2e d4 be
       -0.29458284 0.06987578 -0.04247456 -0.41441914
000010 3b 45 22 bf ba d9 4b be 84 3d b3 be 1b 83 f5 bd
       -0.6338689 -0.19907275 -0.3500787 -0.11987897
000020 36 f8 52 bd bb 5a 89 be ee 22 2f be 58 bb 57 bf
       -0.051506244 -0.26827034 -0.17103168 -0.8427024
000030 56 47 06 be fb 09 85 be 36 5b 97 be 7b 48 80 be
       -0.1311315 -0.25984177 -0.29561776 -0.25055298

layers_2n.1.bn1.running_mean f4 [16]
000000 1e 88 7f bf 15 05 5f c0 52 41 23 3f 11 fd 9a bf
       -0.99817073 -3.4846852 0.63771546 -1.210848
000010 03 1f 24 3f 5b 15 0c c0 a2 73 a8 be 0f 92 bc bf
       0.6410982 -2.1888034 -0.3290072 -1.4732074
000020 3b 2f ce 3f 06 b9 89 c0 3b 13 e0 be c0 26 b5 3f
       1.6108164 -4.303836 -0.43764672 1.415245
000030 d7 6b 63 3f 7c 14 12 3f 91 0a ad bf f0 b8 11 c0
       0.88836426 0.57062507 -1.351885 -2.2769127

layers_2n.1.bn1.running_var f4 [16]
000000 90 69 35 41 2b 08 d7 40 72 e1 c2 40 47 a7 cf 40
       11.338272 6.719747 6.09002 6.4891696
000010 91 57 37 40 84 99 7b 41 76 a0 63 41 8e ce 56 41
       2.8647196 15.724979 14.226675 13.425428
000020 ca 97 42 41 aa 94 a4 40 77 92 63 40 9e bf 41 40
       12.162058 5.1431475 3.5558145 3.0273204
000030 bf f1 23 41 34 15 00 41 ec 66 8b 40 2d da dd 40
       10.24652 8.005177 4.3563137 6.932883

layers_2n.1.conv2.weight f4 [16, 16, 3, 3]
000000 66 f6 70 3e 63 69 38 3e 15 40 28 3e e2 a9 f3 3d
       0.23531494 0.18008952 0.16430695 0.11897637
000010 cc 92 a1 bc fe d0 03 3e d8 a9 62 be 1d 9e 26 be
       -0.019723319 0.12872693 -0.22135103 -0.16271253
000020 26 44 80 3c 7a ac 1d be 52 b6 c7 bd aa e7 2f 3d
       0.015657496 -0.15397826 -0.09751572 0.04294554
000030 51 93 df 3b c2 8b c9 3d 74 52 b3 3d df d3 f3 bc
       0.0068229814 0.0984111 0.08755961 -0.029764114
000040 e4 78 32 3a 39 fa 41 3c e2 2b 7a be a5 27 38 be
       0.0006808175 0.011839443 -0.24430802 -0.17983873
000050 a1 31 c8 bd 8d aa 41 be b3 af 11 be bc ab 03 be
       -0.09775091 -0.18912716 -0.1422718 -0.1285848
000060 f9 8a 80 be bc d1 14 be 49 ca 43 be ed cd 1f bd
       -0.25106028 -0.14533132 -0.19120134 -0.039014746
000070 4e e2 98 bd 28 d7 47 bd c8 5e 03 bc 2a 33 f4 3d
       -0.07465039 -0.048789173 -0.008018203 0.11923821
000080 3d 6a b5 3d 27 58 ec bb 36 f0 d5 3d be 84 73 3c
       0.08858154 -0.007212657 0.10446207 0.014863191
000090 ae e4 c2 be 92 5a 4b be 84 c5 3a be 68 5b 69 be
       -0.38065094 -0.19858769 -0.18239409 -0.22788775
0000a0 5a 9e 3f be 84 a8 35 be c9 c4 1b be 01 e8 0a be
       -0.1871275 -0.17740065 -0.15211786 -0.13565065
0000b0 3e 42 12 be 2b 9c 09 3e ca 73 83 3c 1f 3e 30 3c
       -0.14283082 0.1343848 0.016046423 0.010756998
0000c0 20 e6 62 3e 44 20 d4 3d ac 08 0d 3b 52 5f 85 3e
       0.22158098 0.10357717 0.0021520061 0.26049286
0000d0 98 89 40 3e eb cd df 3c 42 90 68 bd 7b 95 ca 3d
       0.18802488 0.027319869 -0.0567782 0.098917924
0000e0 2f ad 99 3d 81 4b 23 3e 22 7e 1f 3d c2 d8 fc 3d
       0.07503735 0.15946771 0.03893865 0.12346031
0000f0 de d1 0e 3d da 68 03 3d 0c 19 b8 bc c8 43 b7 bb
       0.034868114 0.032082416 -0.02247288 -0.005592797
000100 8f af 86 bc e9 5f fc 3c 5b 5b 32 3b d5 4f 4c 3d
       -0.016441135 0.030807452 0.0027215097 0.04988082
000110 5c 8e 93 3d 35 95 98 bd 90 a2 6c bd 6c a9 d1 3c
       0.07204887 -0.07450334 -0.05777222 0.025593482
000120 ac 09 a6 3e fb e9 56 3e f2 6a 2c be 79 ed b6 3d
       0.32429254 0.20987694 -0.16837671 0.08932013
000130 36 30 09 be 9d 33 a8 bc 04 1a 9a bd aa 18 fb bd
       -0.13397297 -0.020532424 -0.07524493 -0.12260564
000140 23 4f ac ba 1f cb c2 bc 01 71 81 bd ae 53 33 be
       -0.0013146143 -0.023778496 -0.06320382 -0.1751239
000150 ec 93 72 be 63 7d a2 be 78 a3 a9 bd cb 20 a7 be
       -0.2368924 -0.31736287 -0.08283132 -0.32642207
000160 80 34 27 be bb 89 17 3e 5d c7 89 bd 6e 56 bb 3c
       -0.16328621 0.14798634 -0.06727479 0.022868361
000170 86 d9 3b 3b dd 87 67 be eb de 41 3c b7 84 bc 3d
       0.002866359 -0.22610421 0.011832933 0.09205001
000180 4c 20 57 be 9c c5 16 3c eb a5 40 3e 26 56 57 be
       -0.21008414 0.009202387 0.18813293 -0.21028957
000190 79 70 09 bd ae ec 75 bd 90 5e 76 be 59 46 e6 bd
       -0.033554528 -0.06004017 -0.2405951 -0.112438865
0001a0 16 5d 24 be 85 a0 32 be c0 f0 d1 3b 2c 65 b9 bd
       -0.16051134 -0.17444046 0.0064068735 -0.090525
0001b0 c9 98 3f 3d 8a 90 fd 3d 88 cf 8c bd 59 83 3c 3e
       0.046776567 0.12381084 -0.06875521 0.1840948
0001c0 5d a6 76 3e 4f f7 7e 3d f5 2f a6 3e 84 6e 42 3e
       0.240869 0.06224757 0.32458463 0.18987471
0001d0 b6 f4 c6 3d 51 88 ee 3d e9 82 59 bd 57 3f b2 be
       0.09714644 0.11647094 -0.05310336 -0.3481395
0001e0 b2 da 18 3d 95 c9 2f be 92 9c af be 9c 4b bd bc
       0.03731794 -0.17166741 -0.3429914 -0.023107342
0001f0 ac 02 8d bd 31 83 45 be e6 68 2c bb ef 9b 9d 3d
       -0.06885275 -0.19288327 -0.0026307642 0.076957576
000200 96 30 26 3e 3d 39 11 bd 6c 21 8c 3d 3e dc 74 3d
       0.16229472 -0.035454977 0.06842312 0.05978035
000210 2b 96 c7 3a 51 21 10 3d 9e 3f a6 3c ca 03 ee 3d
       0.0015227249 0.035188023 0.020294007 0.116218165
000220 31 0d 8c 3d a6 1a 7f 3d 49 07 f9 3d d0 a4 c6 3d
       0.068384536 0.062281273 0.12159593 0.09699404
000230 d9 8a 65 3d dd 28 eb 3c a7 b7 c3 3d c0 b8 ec 3d
       0.05604062 0.028706009 0.09556513 0.11558676
000240 91 11 13 3e 4f ae b7 3e 97 b5 40 3e 56 b6 9f be
       0.1436217 0.35875174 0.18819271 -0.311938
000250 82 c9 c0 bc 14 cf 56 3e f3 88 73 3d 3f e5 64 bd
       -0.023533586 0.20977432 0.059456777 -0.05588269
000260 69 48 42 3d 5d ff 83 3e 84 2e e5 3d bc 06 93 bd
       0.047432337 0.25780764 0.11190513 -0.07179019
000270 44 95 b2 be f0 15 f6 be 7b e3 45 be a7 48 f0 3e
       -0.34879506 -0.48063612 -0.19325058 0.4693043
000280 f4 ae ad 3e 0a 1b 92 3e 92 9a 1b 3e e0 84 21 3f
       0.3392254 0.28536254 0.15195683 0.63093376
000290 41 89 1f 3f a0 f0 bd be 99 70 08 bf 0a e3 d9 be
       0.6231881 -0.37097645 -0.5329681 -0.4255603
0002a0 78 dc b8 3d c6 2e 18 3f 13 5d 1d 3f 67 ef a5 3d
       0.09026426 0.5944637 0.61470145 0.08102303
0002b0 36 67 ed bd 7c 84 40 3c 7b c6 59 be bb 5d 0b bf
       -0.115919515 0.011750337 -0.2126712 -0.54439896
0002c0 1f cf 99 be 1f 29 33 bd fe 72 9a be e0 c9 38 be
       -0.30040833 -0.043740388 -0.30165857 -0.18045759
0002d0 7e 3a 00 be e6 b5 95 bd 7b 50 f8 bc 9f 6f cd be
       -0.12522313 -0.07310085 -0.030311814 -0.40124223
0002e0 25 ef 8d be 8b b2 b1 be 8a 87 5f 3d 63 ca 82 bd
       -0.27721515 -0.3470653 0.05457262 -0.063862585
0002f0 3b ef 4d be f5 9c 24 bb c8 b7 1f bd 52 70 2d bd
       -0.2011079 -0.0025117968 -0.038993627 -0.042343445
000300 96 93 cd 3d a6 29 db 3c aa 2f da bd 86 23 e2 bd
       0.100379154 0.026753258 -0.106536224 -0.11041932
000310 b6 ce ba bc 5d ec 88 bd 97 0f 1a 3f 94 dd e9 3e
       -0.022803646 -0.06685708 0.6018004 0.45676863
000320 2f 1c 9f bd 82 77 67 3d 59 ff 42 3f b0 f9 2a 3e
       -0.077690475 0.056510456 0.7617088 0.1669681
000330 5b 5f e9 3e 7b 0a 9d 3e 2e cb 1e bd 4f c2 d5 3d
       0.45580563 0.30672058 -0.038767986 0.10437452
000340 88 41 d8 3d e8 dd 17 3d fa 61 97 be 98 9a 81 be
       0.10559374 0.03707686 -0.29566938 -0.25313258
000350 d7 5b 63 be 5c c5 33 be c8 f9 6f bd 31 89 83 3e
       -0.22203003 -0.17555755 -0.05858782 0.25690606
000360 73 a2 f5 3b 48 a1 5b bd f1 7f ba 3d 6a 6c 9e 3e
       0.007496172 -0.053620607 0.09106434 0.30942088
000370 94 02 07 3f f8 4b 3f 3d 26 4c 02 be f3 30 ed bd
       0.5273831 0.04670331 -0.12724361 -0.11581602
000380 23 7d 51 bc bf f1 ab bd c6 23 f1 3d 4b 75 12 3d
       -0.012786183 -0.08395719 0.11774401 0.03575639
000390 65 7e 62 3e 46 1e 1e 3f f1 9f d6 3e 1e 55 9d be
       0.22118528 0.61764944 0.419189 -0.30729002
0003a0 14 69 1d bd 43 99 89 bd 22 39 40 be 82 40 5a bd
       -0.03843029 -0.067186855 -0.18771794 -0.053284176
0003b0 a2 76 78 bd 93 3c 12 be da 4b 5a bd b5 db 6b bc
       -0.060660012 -0.1428092 -0.053294994 -0.014395644
0003c0 dd e0 09 3d c4 c5 bf 3d 3c 86 38 3e 35 3a 78 be
       0.033661712 0.09363893 0.18019956 -0.24240954
0003d0 a8 65 0a be 1e 02 c5 bd 37 ec 72 be 2d 5c 24 be
       -0.13515341 -0.096195444 -0.23722921 -0.16050787
0003e0 25 34 77 be 99 70 4d 3d d4 a8 bc 3d d9 d1 cb bc
       -0.24140985 0.05015621 0.09211889 -0.024880337
0003f0 17 b0 d1 3d 81 fc 0b 3e 7f bc 01 bd 6e 09 25 bd
       0.102386646 0.13670541 -0.031673905 -0.040292196

layers_2n.1.bn2.weight f4 [16]
000000 1a 07 9f 3e 38 70 30 3f bb 8b be 3e b8 1f f9 3e
       0.31060106 0.6892123 0.3721598 0.48657012
000010 c6 53 20 3f cf a9 31 3f 0c 4b 07 3f 50 c2 0e 3f
       0.6262783 0.6939973 0.5284889 0.5576525
000020 ca 26 c1 3e 40 1a d0 3e 90 6f 5b 3f d2 67 46 3f
       0.37724906 0.40645027 0.85717106 0.7750217
000030 21 4d 0d 3f 9a 71 87 3f 26 ff d7 3e 88 bd 10 3f
       0.55195814 1.0581543 0.4218685 0.565392

layers_2n.1.bn2.bias f4 [16]
000000 d1 f9 e9 3d 4f 58 c0 3e 37 59 94 3e 74 5c 6c 3d
       0.11424602 0.37567374 0.28974316 0.057705358
000010 93 fe 0f 3f 75 a1 2c 3d 93 2c 33 3d 84 3e 3e 3d
       0.56247824 0.042146165 0.04374368 0.04644634
000020 b4 8e 50 3d 90 35 21 3e 27 43 11 bf 18 c8 ad bf
       0.050917342 0.15743089 -0.5674309 -1.3576689
000030 fd 9f d2 3e 9b e5 ac bf 07 56 66 3e 7f 94 9d be
       0.41137686 -1.350757 0.22493754 -0.30777356

layers_2n.1.bn2.running_mean f4 [16]
000000 fe 88 49 be ca 78 41 3f 63 d6 07 3f d9 57 0e c0
       -0.19681165 0.75574934 0.53061503 -2.2241118
000010 33 2a 64 3e ba 67 4e 3e e1 9d bb be cb 38 c3 be
       0.22281723 0.20156756 -0.3664389 -0.38129267
000020 15 68 ad bf 43 cf 48 3f 6e 35 82 be dc 89 89 bf
       -1.3547388 0.78441256 -0.2543139 -1.0745196
000030 e4 fe 5f c0 85 fe 8b bf 58 c4 38 c0 7e f8 5f bf
       -3.4999323 -1.0937048 -2.8869839 -0.87488544

layers_2n.1.bn2.running_var f4 [16]
000000 c5 5e 10 40 3b 92 0b 41 36 fb ee 3f 53 dc 10 40
       2.2557843 8.723201 1.8670413 2.2634475
000010 7d 9e 7a 40 31 65 86 40 0d b2 3c 40 fe af e8 3f
       3.9159234 4.1998525 2.9483674 1.8178709
000020 e3 f5 3e 40 fd f7 5f 40 af 74 85 40 9f 1c 3c 40
       2.9837577 3.499511 4.1704936 2.939247
000030 cc b3 b2 40 df fb ad 40 9b 73 2a 40 03 18 26 40
       5.584448 5.436996 2.663306 2.5952156
